model/gasmil_uni_phikon.pt (torch, 91758 bytes, 15 tensors)

grouped_heads.0.mlp.mlp_block.0.weight f4 [2, 1024]
000000 bc bf 79 bd 1e 4a 9a bd 5f 83 cd bc 1b 88 a7 3c
       -0.060973868 -0.07533668 -0.025087057 0.020450642
000010 46 f0 48 3d e1 36 d3 3c 5a 44 e4 3c 4f 95 e3 bc
       0.049057268 0.025783004 0.027864624 -0.027781157
000020 9a e7 96 bd 8f 23 35 3d b3 cb 3a 3c 5e e1 ae bd
       -0.07368393 0.044223364 0.011401105 -0.08539079
000030 cd 6d 01 bd fc 3a 60 3d cd f9 d4 3c da 4a c3 bd
       -0.031598855 0.054743752 0.02599802 -0.09535761
000040 4a fc 95 bd 6a 22 c4 3c 29 c2 98 3d b3 98 c1 3c
       -0.07323511 0.023942191 0.07458908 0.023632383
000050 4c 9e 32 3c 96 f2 ff 3c b9 72 d4 3c f5 c1 87 bb
       0.010901999 0.031243604 0.02593361 -0.0041429945
000060 07 de 89 bc a7 3e 04 bd 4e ad 24 3b 83 a1 87 bd
       -0.016829504 -0.032286312 0.0025127712 -0.06622603
000070 99 b2 8c bd d1 11 a4 3d 38 89 76 bd e4 31 04 bd
       -0.06870002 0.08011211 -0.060189456 -0.032274142
000080 23 b2 0b bc cd fa 87 3d 94 b8 a4 bc b0 cd fb 3c
       -0.008526358 0.06639633 -0.020107545 0.030737728
000090 dd b8 b4 bd 5f 19 0e 3e ce 77 e7 ba 87 91 a3 bd
       -0.088243224 0.13876866 -0.0017659606 -0.079867415
0000a0 96 fe 8f bd 38 e7 a6 bb 61 7e 10 be 46 1f ab 3c
       -0.0703098 -0.0050934814 -0.1411071 0.020888936
0000b0 dd 35 07 bd 80 f0 1c bd 8d 7e ce 3d 9e 5e 68 bd
       -0.033010352 -0.038315296 0.100827314 -0.05673086
0000c0 e5 95 b2 bd 2e 40 e9 bc c1 04 6d 3b 77 89 5e 3d
       -0.08719996 -0.028472986 0.0036166164 0.054330315
0000d0 d8 4d 4d 3c 40 92 96 3d 30 60 ce 3c 20 0e 46 3d
       0.012530766 0.07352114 0.02519235 0.048353314
0000e0 50 91 1c bd 40 83 bc bc 83 fc 5c bc 3c ca b8 bc
       -0.03822452 -0.023011804 -0.013487938 -0.02255737
0000f0 c1 da 90 bc c6 b0 e7 bc 0c f7 75 3d 81 2d 1a 3c
       -0.017682435 -0.028282534 0.060050055 0.009410263
000100 d8 a2 d9 38 07 79 c4 3c e5 a7 9a bb 0e bd 27 bd
       0.00010377698 0.023983492 -0.0047197216 -0.04095178
000110 3f aa c9 bc ab 79 d7 bd 8a e2 27 3d da e5 c4 3c
       -0.024617312 -0.10521253 0.04098753 0.024035383
000120 5f 83 24 bd 79 c7 d9 bd c1 b6 e5 b8 eb fe 63 bd
       -0.040164348 -0.106337495 -0.000109536115 -0.05566303
000130 2f 84 82 bd 20 e4 90 3d bb 72 85 3c fe 0f 77 bd
       -0.06372868 0.070747614 0.01629006 -0.060317986
000140 89 12 b9 bb 25 6d d7 3d f5 3e 95 3d 61 3c 0b bd
       -0.0056479615 0.105188645 0.07287399 -0.03399313
000150 de c3 8b bd ec b7 29 bd 6a b9 e3 bd bf 94 b8 bb
       -0.06824468 -0.041435167 -0.11119349 -0.0056329663
000160 9d d7 98 bc db 74 a3 bd cf 9d bd 3c 47 89 f8 bc
       -0.0186575 -0.07981273 0.023146538 -0.030338896
000170 0f f7 ce bc 0d 88 9a 3c 57 b0 14 3d 08 0e af 3c
       -0.025264291 0.018863702 0.036300983 0.021368995
000180 37 9c ac bc 12 19 83 bd 41 1c 63 bd b1 03 b6 3a
       -0.021070583 -0.06401266 -0.055446867 0.0013886598
000190 0c d1 ff 3b 5f 2a 7c 3a 6c 76 fa bd ca f1 3f bd
       0.0078069028 0.0009619351 -0.122296184 -0.046861447
0001a0 84 23 11 3d 61 fd c4 3b 55 e8 ed 3d e7 33 b9 3d
       0.03543426 0.0060116504 0.116165794 0.09043103
0001b0 cb d4 c5 ba 5d 1f 70 3d 9c 67 fe 3c 56 11 ed 3c
       -0.0015093324 0.05862366 0.031055264 0.02893893
0001c0 1f 0d 55 bc 72 5a af bc 09 5e 03 3e 90 76 7c 3d
       -0.013003617 -0.021405432 0.1282884 0.061636508
0001d0 e8 d9 c8 bc 23 a7 2c 3d ee 1b fc bc 46 34 19 bc
       -0.024517968 0.04215158 -0.030775037 -0.009350842
0001e0 29 0b d1 bc 0a e9 25 bd 6f 31 9a 3b 12 86 de bc
       -0.025518017 -0.040505446 0.0047056 -0.02716354
0001f0 c0 73 6d b9 f4 bf d5 3c df 10 50 bd 72 8f bf 3d
       -0.00022645202 0.026092507 -0.05079734 0.09353532
000200 a7 fb d9 bb 4d 4b 99 bd 41 eb b5 3a c2 4a ac 3d
       -0.0066523138 -0.074850656 0.0013879315 0.084126964
000210 11 46 c4 3c 0c 78 20 3c 48 38 2e 3d 4e 1f 12 bb
       0.023959192 0.009794246 0.042534143 -0.002229649
000220 96 2b 9e bd ad ed 26 3d 6e 38 5f bc c7 b0 1c bd
       -0.07723157 0.04075401 -0.013624294 -0.038254526
000230 d2 36 e2 bc 79 b8 79 bd 53 1a 78 39 ab f3 86 3c
       -0.027614031 -0.060966942 0.0002366093 0.016473612
000240 f5 e0 6a 3c d8 a5 38 3d bd f4 27 bd 0c 8e 36 bd
       0.0143358605 0.045080036 -0.041004885 -0.04456906
000250 bb 34 4a bd 9b 73 1f 3c 04 0b 5f 3d 34 42 fa bc
       -0.049366694 0.009732152 0.054453865 -0.030549146
000260 bb c8 2e 3d 56 9d a1 3c 59 55 60 3d 78 df 72 bd
       0.0426719 0.019728344 0.054768894 -0.059295148
000270 85 f3 01 3b 2a 53 93 3d fa 8a 8b 3c 6d 17 93 bd
       0.0019828987 0.07193597 0.017034043 -0.071822025
000280 7c 18 04 3c 83 e1 80 3b 8f 24 50 bd 59 4b 5b 3d
       0.008062478 0.003933133 -0.050816115 0.053538654
000290 8f 99 35 3d e6 91 ef 3b 34 da 91 bd c9 b0 06 bd
       0.044335898 0.0073110936 -0.07121697 -0.03288344
0002a0 54 6c c5 3d 6d 95 ad 3d ea 8d 52 bc 77 de 04 bd
       0.096398026 0.08475766 -0.012851218 -0.03243872
0002b0 c3 29 87 bb 37 85 87 ba f4 01 20 3d 63 7b 85 3d
       -0.0041248514 -0.0010339384 0.039064363 0.06517675
0002c0 22 0f 3b bc 98 80 ba bc 38 c4 6d bd b3 97 69 3d
       -0.011417182 -0.022766396 -0.058048457 0.057029437
0002d0 c9 c9 1c 3d 2c d7 c0 bd 32 75 03 3e 49 e9 74 bd
       0.038278375 -0.09416041 0.12837675 -0.05979279
0002e0 41 8a d5 3c 02 4e ab 3d 64 d8 d7 bd 23 2e 68 bd
       0.026066901 0.08364488 -0.1053932 -0.056684624
0002f0 c7 93 7b 3b 3d cd 9d 3d 1a 65 c2 3d 1a 39 85 3c
       0.0038387643 0.07705162 0.0949194 0.01626258
000300 f2 41 7e 3d 92 d1 94 bc 93 13 50 3b 5f bf 4a bd
       0.06207461 -0.018166337 0.0031749948 -0.049498912
000310 43 36 11 3c b6 a9 42 3b 3f 84 a3 bc 67 9a 00 3c
       0.008863035 0.0029703206 -0.01996052 0.007849312
000320 25 88 4d bd d0 47 3b bb ce 7d ef 3c 3b 94 15 3d
       -0.050178666 -0.002857674 0.029234793 0.036518317
000330 9b ac 91 bc b0 d5 37 3d 92 bf 46 bc f3 1a ef bd
       -0.0177825 0.044881523 -0.012130635 -0.11675062
000340 0a 85 18 bd 1f 5c c9 bc c7 48 98 bd 52 4d 3f 3b
       -0.03723625 -0.02458006 -0.07435756 0.0029190374
000350 7d a4 20 3a b1 30 20 bd 19 9f 9d 3b 5f 51 a7 bc
       0.0006128026 -0.039108936 0.0048102257 -0.020424543
000360 f3 ab 6e bc 92 70 b0 3d 6e 18 37 3d 4c 12 44 3e
       -0.014567363 0.08615221 0.044701032 0.19147605
000370 7f 63 c9 bd 65 62 19 3d 20 cf 02 be a5 7e 95 bd
       -0.098334305 0.037447352 -0.12774324 -0.07299546
000380 f6 50 22 3b 09 f8 37 3b 3b 06 74 3d 08 10 e1 bd
       0.0024767495 0.0028071424 0.059576254 -0.10989386
000390 84 0b 44 3d c5 f8 8c bd 81 4d cb bd fa 07 10 3c
       0.047862545 -0.068833865 -0.09926892 0.008790964
0003a0 eb b7 ca bd c7 0e 8a bd 52 bf 92 3c 67 ea 14 bc
       -0.09898361 -0.067411 0.017913494 -0.009089089
0003b0 cd 76 be bd 3f 9f 08 bd d5 d5 71 bd 5d 9c 87 bd
       -0.09300003 -0.033354994 -0.059041817 -0.06621621
0003c0 b7 84 93 3d 87 44 35 3d 91 08 c2 bb 00 9c 6a bd
       0.07203048 0.044254806 -0.0059214314 -0.05727768
0003d0 42 62 9a 3d 93 c9 eb 3c 8d ae 77 bd 99 a9 1a 3d
       0.075382724 0.028782642 -0.0604692 0.037759397
0003e0 ba a0 17 3d ca 04 43 bd fc bb 8e bd 08 5e 94 bd
       0.037018515 -0.04761199 -0.06969449 -0.072444975
0003f0 79 10 3e bd ef a2 f8 3c f7 48 49 3d 52 51 34 3d
       -0.04640243 0.03035113 0.04914185 0.044022866

grouped_heads.0.mlp.mlp_block.0.bias f4 [2]
000000 87 42 a5 3e 4f 0a 98 3e
       0.3227732 0.29695365

grouped_heads.0.mlp.mlp_block.2.weight f4 [256, 2]
000000 49 b6 96 3e 37 ce 80 3e d4 01 d0 3d 2b 3d 98 3e
       0.29435948 0.2515733 0.10156599 0.29734167
000010 ff 68 d3 bd dc ae 9d be 75 c9 0b be b7 03 10 be
       -0.10322761 -0.3079747 -0.13651069 -0.14063917
000020 97 99 18 be 2e 8a 14 be d8 44 a5 be 53 cf a8 be
       -0.1490234 -0.14505836 -0.32279086 -0.32970676
000030 b4 66 c3 bd 2f e0 86 be 3e 7f 4b be 74 c6 a3 be
       -0.095410734 -0.26342914 -0.19872758 -0.31987345
000040 29 40 86 bd 10 32 54 be f3 93 86 be c6 ce 24 be
       -0.06555206 -0.20722222 -0.2628475 -0.16094503
000050 e3 c7 e0 bd 76 58 8c be e5 ce a1 be 23 a3 62 be
       -0.10975625 -0.2741124 -0.3160316 -0.22132544
000060 f1 0c 9c be b2 73 92 be fa 45 9d be 32 57 ab be
       -0.30478624 -0.28603894 -0.3071745 -0.33464962
000070 68 13 4e be 13 07 21 be 54 52 98 be 46 72 a1 be
       -0.2012459 -0.15725355 -0.2975031 -0.31532496
000080 41 73 99 be c6 d6 39 be 70 99 a6 bd 00 20 78 be
       -0.29970744 -0.18148336 -0.08134735 -0.24230957
000090 25 c7 38 be 62 b4 26 be 99 a7 84 be 07 1c 27 be
       -0.18044718 -0.16279748 -0.25909117 -0.16319285
0000a0 ad 0d 9f be 43 27 2e be 12 7d 8a be 02 27 57 be
       -0.3106512 -0.17007165 -0.27048546 -0.21010974
0000b0 c0 89 89 be 5d e2 60 be f4 2d 56 be 2b aa 1b be
       -0.26862907 -0.2196135 -0.20915967 -0.15201633
0000c0 f4 29 5f be f3 90 6c bd bc 36 53 be ea 15 81 be
       -0.21793348 -0.05775542 -0.20626348 -0.25212032
0000d0 6c 47 26 be cb 5b 50 be c1 87 96 be e7 0f 80 be
       -0.16238183 -0.20347516 -0.29400447 -0.25012133
0000e0 94 e3 a8 be 45 9a 8b be 7f 69 26 be 26 3e ae bd
       -0.32986128 -0.27266136 -0.16251181 -0.085079476
0000f0 43 46 a7 bd 82 aa a2 be eb dd 23 be e3 98 5b be
       -0.08167698 -0.31770712 -0.16002624 -0.2144504
000100 0a ab 84 be 08 76 ae bd e0 c7 31 be 10 ba 1b be
       -0.25911742 -0.085186064 -0.17361403 -0.15207696
000110 e9 fb 17 be 06 a5 96 be 91 54 0c be 23 40 66 be
       -0.1484219 -0.29422778 -0.13704135 -0.22485404
000120 dc b7 45 be 47 e3 16 be c5 00 53 be 1e 1f e1 bd
       -0.19308418 -0.14735137 -0.20605762 -0.10992263
000130 01 4b 5f be 0a 5e eb bd b5 89 ac bd 18 ad f1 bd
       -0.21805955 -0.11492546 -0.08424703 -0.11800593
000140 db ad a4 be 07 4a 77 be 9c 0f 87 be 3a 3a 74 be
       -0.3216389 -0.24149333 -0.26379097 -0.23850337
000150 84 e8 fe bd 3b a4 20 be 20 bd c2 bd 29 d2 98 bd
       -0.124466926 -0.15687649 -0.09508729 -0.0746196
000160 ef c0 ea bd 5b 66 60 be 2a c7 3d be 77 7c a8 be
       -0.114625804 -0.21914046 -0.18533006 -0.3290746
000170 d8 13 03 be cd aa 48 be 4b d0 82 be a8 c0 a2 be
       -0.12800539 -0.19596405 -0.2554954 -0.3178761
000180 84 5f 25 be f2 29 98 be b8 68 89 bd 1a e1 66 be
       -0.16149718 -0.29719502 -0.06709427 -0.22546807
000190 56 82 3e be 96 98 a7 be 70 5f cc bd 3f 0e cf bd
       -0.18604407 -0.327336 -0.09979141 -0.10110139
0001a0 a5 c6 a7 be a3 3c 82 be ce 5b a3 be 0b 98 c8 bd
       -0.3276874 -0.25436887 -0.3190598 -0.09794625
0001b0 31 df 8a be 5c 36 b1 bd 0e 3e 03 be 19 29 4b be
       -0.27123407 -0.08652946 -0.1281664 -0.19839896
0001c0 a9 55 25 be fa 2f 99 be d6 85 fb bd 85 ae 8e be
       -0.16145958 -0.29919416 -0.122813866 -0.27867523
0001d0 89 d8 2c be 08 b4 a7 be 98 4a de bd 6f 40 58 be
       -0.16879477 -0.3275454 -0.108540714 -0.2111833
0001e0 86 a2 1b be 62 6e 81 be ee ca 63 be 83 4c 0e be
       -0.15198717 -0.25279528 -0.2224538 -0.13896374
0001f0 29 c2 11 be 24 e0 8f be 82 bb a5 be 35 9c ef bd
       -0.14234222 -0.28100693 -0.3236962 -0.11699716
000200 ef 3c 1a be 44 c8 ec bd ec fc 37 be 61 bd 4b be
       -0.15062307 -0.11561635 -0.17967576 -0.19896461
000210 a6 1c a3 be 86 97 20 be 22 f6 82 be 98 3b ae bd
       -0.31857795 -0.15682802 -0.2557841 -0.0850746
000220 e6 16 80 be c5 eb 16 be 9d 23 7a be aa 81 a4 be
       -0.2501747 -0.14738376 -0.24427648 -0.32130176
000230 fd 72 e2 bd 4f 3b 31 be 64 bf 71 be dd b1 8e be
       -0.110570885 -0.1730778 -0.23608166 -0.27870074
000240 5a 15 43 be 08 25 63 be fb 52 9e be b1 03 81 be
       -0.19051114 -0.22182095 -0.30922684 -0.2519813
000250 0e 40 2c be 0f ff c5 bd 2a 8a 9e be 40 0e 59 be
       -0.1682131 -0.09667789 -0.30964786 -0.21196842
000260 a5 fa 73 be 17 46 95 bd 19 de ad be eb 67 77 be
       -0.23826082 -0.07288759 -0.3395851 -0.24160735
000270 79 e7 bd bd a2 16 91 be 30 01 94 be 15 95 89 be
       -0.092726655 -0.2833758 -0.28907156 -0.26871553
000280 3f 3d 1b be fe 2e 0e be 41 86 82 be aa bf b4 bd
       -0.15160082 -0.13885114 -0.25493053 -0.088256195
000290 99 ff 6f be c0 9d a1 bd f7 bf a4 bd 13 c3 fe bd
       -0.23437347 -0.078914165 -0.08044427 -0.12439551
0002a0 57 41 ee bd 07 23 a6 bd 63 08 30 be 9e 5e e6 bd
       -0.11633556 -0.0811215 -0.171907 -0.112485155
0002b0 06 d4 6c be 47 4a 94 be fd 0a 8b bd aa cb 97 be
       -0.23127756 -0.2896292 -0.06789205 -0.2964757
0002c0 a3 22 a4 bd 66 64 73 be 8c e4 50 be 21 4c 4d be
       -0.08014419 -0.23768768 -0.20399684 -0.20048572
0002d0 b1 b2 7e be b3 c3 ae bd 03 c8 9a be d8 c4 94 bd
       -0.24872853 -0.085334204 -0.30230722 -0.072641075
0002e0 91 9c aa be a1 78 ec bd 53 81 8c be a3 0b 89 be
       -0.33322576 -0.11546446 -0.27442417 -0.2676669
0002f0 b2 fe 90 be bf 2e 81 be af 89 48 be 97 99 60 be
       -0.28319317 -0.25230977 -0.19583772 -0.2193359
000300 45 ca 98 be 03 8f 01 be 93 52 ee bd 54 6a 94 be
       -0.2984182 -0.12652211 -0.116368435 -0.28987372
000310 5b f0 9a bd b1 b9 29 be c7 90 97 be 4b 98 a1 be
       -0.075653754 -0.16574742 -0.29602644 -0.31561503
000320 92 0a 99 be 08 58 8a be 88 a9 a0 be 5f 24 80 be
       -0.29890877 -0.27020288 -0.31379342 -0.2502775
000330 09 96 fc bd 42 89 2d be 9a 1d 21 be d7 be 71 be
       -0.123333044 -0.16946891 -0.15733948 -0.23607956
000340 e8 d8 f9 bd 8d 3e 58 be 4f 07 44 be 74 7d f9 bd
       -0.12199575 -0.21117611 -0.19143413 -0.121821314
000350 19 49 11 be 0d 86 cd bd 6b 06 44 be 00 fa 01 be
       -0.14188041 -0.10035334 -0.19143073 -0.12693024
000360 11 c1 25 be a4 d6 c1 bd 57 7f 58 be e9 91 3c be
       -0.1618693 -0.094647676 -0.21142326 -0.18415035
000370 48 aa 6c be ba 3e 7f be 45 35 92 bd 8f ff 5e be
       -0.23111832 -0.24926272 -0.071390666 -0.21777175
000380 29 3f a9 be 3c 02 13 be 6b 3b 2e be 61 b6 54 be
       -0.33056 -0.14356321 -0.17014854 -0.20772697
000390 9c b9 18 be 52 1e 4b be 60 a4 7e bd 69 39 91 be
       -0.14914554 -0.19835785 -0.06216848 -0.28364113
0003a0 d2 04 05 be a4 fb bc bd c6 4a 39 be ca 94 5a be
       -0.1299012 -0.09227684 -0.1809493 -0.21345821
0003b0 f1 a9 6f be 8d 83 9d be d5 97 80 be 94 ac 9b be
       -0.23404671 -0.30764428 -0.2511584 -0.30405104
0003c0 fb 37 0e be 25 f6 d8 bd 92 20 4e be 4d 10 fa bd
       -0.13888542 -0.10593823 -0.20129612 -0.122101404
0003d0 3a 35 8a be 8b de 84 be dc 03 e9 bd de e8 7b be
       -0.26993734 -0.25951037 -0.11377689 -0.2460055
0003e0 55 1b 7e be f7 a5 17 be 99 90 28 be f8 38 9b be
       -0.24815114 -0.14809404 -0.1646141 -0.303169
0003f0 6c 8f 8f be bf 84 4e be cc ee ed bd 84 2b 49 be
       -0.2803911 -0.20167826 -0.116178125 -0.19645506

grouped_heads.0.mlp.mlp_block.2.bias f4 [256]
000000 16 d1 3a 3e ac a8 1d 3e 1b 22 59 be 11 37 5b be
       0.18243822 0.15396374 -0.21204416 -0.21407725
000010 ee e0 5e be 74 2e 4a be 8b 79 5d be 0e e1 41 be
       -0.21765491 -0.19744283 -0.21628396 -0.18933508
000020 f8 2f 5c be 4c 60 4f be 6d 85 4f be 55 5f 47 be
       -0.21502674 -0.20251578 -0.20265742 -0.1946996
000030 69 38 4b be 03 5c 51 be e4 c5 53 be 5f 67 4e be
       -0.19845738 -0.20445256 -0.20680958 -0.2015662
000040 e4 d5 53 be d3 ed 60 be 8e 12 56 be 57 e3 5b be
       -0.20687062 -0.21965723 -0.20905516 -0.21473442
000050 3d 13 4b be 0c 84 4d be da 88 4a be c1 6b 5c be
       -0.19831558 -0.20069903 -0.19778767 -0.2152548
000060 f3 a7 50 be 63 0d 46 be ac b6 50 be 4c f9 4d be
       -0.20376568 -0.19341044 -0.20382184 -0.2011463
000070 de 96 4e be a2 c2 66 be 0f e8 52 be 2f 60 5d be
       -0.20174739 -0.22535184 -0.20596336 -0.21618722
000080 f1 10 55 be 3b cc 52 be d3 90 4f be 73 0f 59 be
       -0.20807244 -0.2058572 -0.2027009 -0.211973
000090 c6 04 5c be b6 85 59 be a6 b9 5e be 25 81 69 be
       -0.21486196 -0.21242413 -0.21750507 -0.22803171
0000a0 d1 88 49 be 58 11 53 be 3a 46 63 be ce 8c 65 be
       -0.19681098 -0.20612085 -0.22194758 -0.22416994
0000b0 b0 56 4e be e9 54 51 be 80 1c 51 be 4d 69 44 be
       -0.20150256 -0.20442547 -0.20421028 -0.19180794
0000c0 ff 8a 49 be 60 cb 55 be 25 cf 4c be 22 e3 61 be
       -0.19681929 -0.20878363 -0.20000894 -0.220593
0000d0 4f 8f 47 be a4 79 57 be 41 10 59 be 3a fc 62 be
       -0.19488262 -0.21042496 -0.21197607 -0.2216653
0000e0 44 da 49 be e6 a5 54 be 83 01 54 be 28 f4 62 be
       -0.19712168 -0.2076641 -0.20703702 -0.2216345
0000f0 6a b4 55 be e2 fe 61 be a6 50 50 be a6 9e 48 be
       -0.20869604 -0.22069886 -0.20343265 -0.1959177
000100 39 dd 5c be 04 c6 56 be 4c c4 55 be 51 84 5c be
       -0.21568765 -0.20973974 -0.20875663 -0.2153485
000110 34 60 4f be d5 6d 59 be e9 2c 5c be 5f 16 4d be
       -0.20251542 -0.21233304 -0.21501507 -0.20028065
000120 83 c4 50 be 61 14 4c be fb f9 58 be 86 e7 53 be
       -0.20387463 -0.19929649 -0.2118911 -0.20693788
000130 e9 5a 58 be 7d 20 54 be 04 75 61 be 4a bf 4a be
       -0.2112843 -0.20715518 -0.22017294 -0.19799533
000140 c0 ff 5e be e3 0d 57 be 58 2d 5e be 34 44 62 be
       -0.21777248 -0.21001391 -0.21696985 -0.2209633
000150 14 98 56 be 08 0f 52 be 65 8f 4e be 96 1f 4c be
       -0.2095645 -0.20513546 -0.20171888 -0.19933924
000160 52 aa 5a be 60 07 55 be 3b 5e 54 be f5 5d 53 be
       -0.21354035 -0.20803595 -0.20739071 -0.2064131
000170 d1 a3 58 be ca ae 4b be d9 fe 47 be fd 5d 58 be
       -0.21156241 -0.19890895 -0.1953081 -0.21129604
000180 b4 63 57 be 69 b8 58 be 2c 7d 59 be 03 9b 4f be
       -0.21034127 -0.21164097 -0.21239156 -0.20273976
000190 bd 37 4a be 90 eb 48 be ca 8f 5c be 74 63 5e be
       -0.19747825 -0.1962111 -0.21539226 -0.21717626
0001a0 32 6f 48 be a7 65 5e be 0c 2d 62 be ce ef 61 be
       -0.19573668 -0.21718465 -0.22087497 -0.22064134
0001b0 08 59 5e be 73 c0 5c be a7 c6 57 be ab b8 53 be
       -0.2171365 -0.21557789 -0.21071874 -0.20675914
0001c0 94 e7 50 be 04 25 5e be 75 91 4d be 25 28 59 be
       -0.2040084 -0.21693808 -0.20075019 -0.2120672
0001d0 e8 ca 5b be eb ed 4f be 65 06 55 be 3f ee 4d be
       -0.21464121 -0.20305602 -0.2080322 -0.20110415
0001e0 61 e7 4b be f9 e5 5d be a3 09 52 be 9b ae 5a be
       -0.19912483 -0.21669759 -0.20511489 -0.21355669
0001f0 64 04 59 be ca 41 58 be 94 00 59 be 35 17 5c be
       -0.21193081 -0.21118847 -0.21191627 -0.21493228
000200 f8 7b 40 be 6e 04 4b be 8a 14 4c be d3 d6 54 be
       -0.1879729 -0.19825909 -0.1992971 -0.20785074
000210 13 ef 5e be bb c0 53 be 62 98 52 be ff 0e 5a be
       -0.21770887 -0.2067899 -0.20565942 -0.21294783
000220 20 95 51 be 30 c4 58 be 25 5d 53 be 2c 99 54 be
       -0.20467043 -0.2116859 -0.20641 -0.20761555
000230 aa 99 60 be d6 d9 4b be af 29 53 be f9 18 56 be
       -0.21933618 -0.19907317 -0.2062137 -0.20907964
000240 c6 d8 57 be af 97 5f be 82 e6 59 be 4b 62 5b be
       -0.21078786 -0.21835206 -0.21279338 -0.21424215
000250 18 67 5b be 79 5e 51 be 67 03 50 be 32 e4 53 be
       -0.21426046 -0.20446195 -0.20313798 -0.20692518
000260 70 e9 4f be 34 04 53 be fe 93 52 be 62 4f 4a be
       -0.20303893 -0.20607072 -0.20564267 -0.19756845
000270 4d e6 56 be fe 63 55 be 27 db 4d be d9 b9 55 be
       -0.2098629 -0.20838925 -0.20103131 -0.20871677
000280 5a 6d 64 be bb b0 4e be 33 18 60 be 8a b8 62 be
       -0.2230734 -0.20184605 -0.21884231 -0.22140709
000290 bb f1 58 be 53 49 5c be 49 06 56 be 14 21 53 be
       -0.21185963 -0.21512346 -0.20900835 -0.20618087
0002a0 07 e9 51 be f6 a8 55 be 69 c3 53 be 22 29 51 be
       -0.20499049 -0.20865235 -0.20680012 -0.20425847
0002b0 16 49 55 be 25 bf 53 be 37 c5 54 be 62 29 50 be
       -0.20828661 -0.20678385 -0.20778356 -0.20328286
0002c0 a2 a2 4c be 60 54 5b be 87 f1 4e be 7f 1c 5a be
       -0.19983914 -0.21418905 -0.20209323 -0.21299933
0002d0 60 a6 53 be 26 86 5a be c4 99 4f be a4 5c 4f be
       -0.20668936 -0.21340236 -0.202735 -0.20250183
0002e0 ab a8 4c be 24 fe 53 be 8d 2f 5e be a6 67 5b be
       -0.19986217 -0.20702416 -0.21697827 -0.21426257
0002f0 fd 06 5a be 84 7e 5f be dc aa 60 be b2 ab 4f be
       -0.21291728 -0.21825606 -0.21940178 -0.2028034
000300 d7 be 4c be 25 01 54 be 50 5a 48 be 8f 8d 59 be
       -0.19994675 -0.20703562 -0.19565701 -0.21245407
000310 dd 99 56 be 5c e0 5b be 12 2a 55 be 45 6b 5a be
       -0.20957132 -0.21472305 -0.2081683 -0.21329983
000320 09 c9 50 be 32 60 56 be 05 cd 59 be 57 fb 59 be
       -0.20389189 -0.20935133 -0.21269615 -0.21287285
000330 7c b0 52 be 7e 54 5e be 2d 8a 52 be 8c 99 54 be
       -0.20575136 -0.21711919 -0.20560522 -0.20761698
000340 4c dc 48 be f2 5c 4b be a9 1a 45 be c2 30 48 be
       -0.19615287 -0.19859675 -0.19248451 -0.1954985
000350 ef d4 3f be f5 42 56 be 1c ae 53 be f8 b3 4b be
       -0.18733571 -0.2092398 -0.20671886 -0.19892871
000360 a2 8b 5c be ff d0 61 be ad e4 5e be 57 45 56 be
       -0.2153764 -0.22052382 -0.2176692 -0.20924889
000370 0d fb 5b be c8 24 5f be 73 b6 5c be b2 5a 58 be
       -0.21482487 -0.21791375 -0.21553974 -0.21128348
000380 65 38 58 be 1d 72 53 be e0 d7 4f be 86 db 4c be
       -0.21115263 -0.20649 -0.20297194 -0.20005617
000390 1a 05 65 be 41 45 5b be 81 8d 62 be fb 4f 58 be
       -0.22365227 -0.21413137 -0.22124292 -0.2112426
0003a0 dc ad 43 be 29 c8 63 be e9 e6 54 be 02 cc 5c be
       -0.19109291 -0.22244324 -0.2079121 -0.21562198
0003b0 81 d1 5b be 42 7d 50 be be d0 4e be 3d a6 58 be
       -0.21466638 -0.20360282 -0.20196816 -0.21157165
0003c0 61 93 64 be ab 03 59 be 78 20 59 be 72 a9 5e be
       -0.22321846 -0.21192805 -0.21203792 -0.21744326
0003d0 5f d9 4d be 47 62 4c be ea 4c 50 be 46 ae 50 be
       -0.20102452 -0.19959365 -0.2034184 -0.2037898
0003e0 8f 4a 5d be ab b4 53 be 02 13 63 be e8 c0 53 be
       -0.21610473 -0.20674388 -0.2217522 -0.20679057
0003f0 78 54 59 be dc 4a 50 be 5a 6a 43 be 70 80 52 be
       -0.21223629 -0.20341057 -0.19083539 -0.20556808

grouped_heads.1.mlp.mlp_block.0.weight f4 [2, 768]
000000 94 f2 59 3d ab a1 8d 3c 7d d9 65 3d 17 56 07 3d
       0.053209856 0.017289003 0.056115616 0.033041086
000010 6c 35 9a bd ec 6d 32 bd e0 81 b1 bc 42 a8 ce 3b
       -0.07529721 -0.04356186 -0.021668375 0.006306679
000020 b8 a8 31 bd db ab 24 3d b4 d6 86 3d 88 38 9e bd
       -0.043373793 0.040202957 0.0658392 -0.07725626
000030 71 bd 0b 3c 26 25 ef 3d f7 7f 8e 3b 45 40 90 3c
       0.008529053 0.116770074 0.0043487507 0.017608771
000040 b1 35 46 3b 8e ab 97 3d 71 06 56 bd 7e ac ca bd
       0.0030244405 0.07405768 -0.052252237 -0.098961815
000050 73 77 4a 3c fd a1 ea 3d 40 af 77 3d e5 d6 33 bd
       0.0123575805 0.11456678 0.060469866 -0.04390611
000060 ce fe 08 3e a4 4e 63 3d ea b7 75 bc 85 30 03 3c
       0.1337845 0.05549492 -0.014997462 0.008007173
000070 de 12 43 3d ca bd d2 3c b6 08 8c 3d fb 44 17 be
       0.047625415 0.025725264 0.06837599 -0.14772408
000080 88 24 26 bd 0e 41 b4 3b 1e 99 6a 3d 96 94 69 3d
       -0.040562183 0.005500919 0.05727493 0.05702647
000090 5b 40 ae bd 82 7a 7f 3d e5 37 11 bd 30 44 c1 bd
       -0.085083686 0.062372692 -0.035453696 -0.09436834
0000a0 ce 5f 89 bd 2e ce 7f 3b 99 92 ae 3d 49 f1 43 bd
       -0.067077264 0.0039032805 0.08524055 -0.04783753
0000b0 a3 4d 06 bd e3 1b a2 bb d0 35 2a 3d 59 4a a1 3d
       -0.032788884 -0.004947172 0.041555226 0.07875509
0000c0 f9 d2 29 3d a8 50 13 bd 6f b7 14 3e 0a 66 82 bd
       0.041460965 -0.03596559 0.145231 -0.06367119
0000d0 21 80 92 bd 12 ef 9d bd 6a 6d 47 bc 0c 60 90 3d
       -0.07153345 -0.07711615 -0.012172082 0.070495695
0000e0 ae 31 7f 3d 32 2e 2f bd 6a 8c 72 3b 24 7c 4a 3d
       0.062303238 -0.042768665 0.0037009963 0.049434796
0000f0 7f 77 49 3d f6 fd 85 bd 8c 82 17 bd d6 29 c7 bd
       0.049186226 -0.0654258 -0.036989734 -0.097247764
000100 e2 52 dc 3c 80 99 cc bc 32 fc 5f 3c b2 d7 f5 bc
       0.02689499 -0.024975538 0.013670968 -0.030010078
000110 c3 03 83 bc d2 ee 0a 3d 71 98 9e bc 2b 5a a3 3c
       -0.015993005 0.033919163 -0.0193598 0.019940456
000120 6a 0d de 3d dc d0 8e 3d a2 42 ce bd 52 fb 8c bd
       0.10842402 0.069734305 -0.10071303 -0.06883873
000130 c9 b1 ac b9 3a 7a a7 bc f3 39 cc ba fb 59 8d 3d
       -0.00032938857 -0.020444024 -0.0015581235 0.06901928
000140 69 d9 e7 bc 56 d2 93 3d e0 d3 5a 3d 81 73 02 3c
       -0.028301911 0.07217853 0.053424716 0.007962109
000150 b5 00 88 3c 06 b4 87 3d 36 e4 22 3d 12 b3 3f bd
       0.0166019 0.066261336 0.03976842 -0.046801634
000160 96 da b3 bc c3 d3 8b 3d 51 12 ad bc bf c0 3d 3d
       -0.021954816 0.068275 -0.021126898 0.046326395
000170 45 c2 c9 bc 1c ea bf 3c ae 05 41 3d 2b 73 09 bc
       -0.024628768 0.023427062 0.047124557 -0.008389275
000180 64 b8 7f 3c 99 9e e5 bb 5a b2 3e bd 3d f0 a3 3d
       0.015607927 -0.0070074317 -0.046556808 0.08004806
000190 d3 99 0a be 15 64 a6 3b e9 3a 18 bd 32 81 e7 3c
       -0.13535242 0.0050778487 -0.037165556 0.028259847
0001a0 24 e9 47 3e 89 40 56 3d 2c 2d 88 bc f8 18 e6 bd
       0.1952253 0.05230764 -0.016623102 -0.11235231
0001b0 08 81 2f bc e4 dc bd bd fa cd f3 3d 3e 77 7d bb
       -0.010711916 -0.09270647 0.11904521 -0.003867581
0001c0 54 f2 1a bc ac a8 80 3d fa 75 1e ba 75 ba 97 3b
       -0.00945719 0.062821716 -0.00060448016 0.0046303817
0001d0 d7 72 06 bd af 64 c5 bd 1a c2 f5 bc 73 25 54 bc
       -0.032824364 -0.096383445 -0.029999781 -0.012948382
0001e0 a5 29 01 3e 73 a7 d7 3d 06 63 50 bd 0f e6 f3 bc
       0.12613542 0.10529985 -0.050875686 -0.029772786
0001f0 fd 9c 34 bc 79 7d ea bc b8 1b fa bc 05 3b 8a 3d
       -0.011023757 -0.028624283 -0.030530795 0.06749538
000200 f3 db 9b bd ee 24 34 3d f2 71 5a bd d0 9a ac bd
       -0.07610311 0.04398053 -0.053331323 -0.08427966
000210 75 2c 04 3d cf 75 61 3d 83 40 4a 3c d8 98 e7 3b
       0.03226896 0.05504399 0.012344482 0.007067781
000220 2e e2 33 3d 08 6f 7f 3d b9 9f 9f 3d 07 a7 a1 3d
       0.043916874 0.062361747 0.077941366 0.07893186
000230 d8 d6 96 3d 01 0d 95 bc 8c 2a 49 bd f0 c4 38 3c
       0.07365197 -0.018194677 -0.04911284 0.011277422
000240 f8 ea 8b bd 33 2a 68 3d 0a e6 27 bd cd bb ae 3c
       -0.06831926 0.05668087 -0.040990867 0.021329785
000250 4c 9e 2a 3d 44 66 93 bd 80 bf 68 3d fd be a3 bd
       0.04165487 -0.0719724 0.056823254 -0.079954125
000260 e0 b6 6e bd 1f 0d e0 bc 14 9f 07 3d 0c d8 da 3c
       -0.058279872 -0.027350007 0.033110693 0.026714347
000270 10 7a 66 bc 85 b6 49 bb 14 72 2f be 6d 09 83 bd
       -0.014067188 -0.0030778956 -0.17133361 -0.06398282
000280 25 7e ae 3d ba 96 2a be 1e 76 31 3d 36 55 e2 3c
       0.08520154 -0.1665906 0.043325536 0.027628522
000290 6f 41 37 3d 14 8c 99 3d bb 0b ca bd 2c 11 80 bd
       0.044740137 0.07497421 -0.09865519 -0.06253275
0002a0 cc 0e b0 bd db ce e3 3c 3a 93 d2 bc 3a 1c 84 3c
       -0.08596572 0.027808597 -0.025704969 0.01612674
0002b0 36 2d b1 3c 50 6e 9c 3b a4 c0 aa bc d6 a8 9e 3d
       0.021628004 0.0047738925 -0.020843811 0.07747047
0002c0 a4 9a 08 3d a1 e8 e3 3d a4 ec c5 bb cb d8 37 bd
       0.0333506 0.11128355 -0.0060401727 -0.044884484
0002d0 b3 48 c2 3c 7f 0a 81 bd f6 ac ed bd ab 01 ee bd
       0.023716306 -0.0630083 -0.11605255 -0.11621412
0002e0 d0 17 a6 3d d3 5a a3 bc 69 f8 dc 3d 02 f4 73 bd
       0.081100106 -0.01994077 0.10789568 -0.059558876
0002f0 52 48 35 3d 73 73 b5 3d 96 be b1 3b 63 0d 3f bc
       0.044258423 0.08859911 0.005424331 -0.0116609065
000300 c4 6d 9e bd ff f2 3c bd 23 68 b0 bd c7 e6 85 3d
       -0.0773578 -0.046130177 -0.086136125 0.06538158
000310 35 3a 89 3d 33 cc b3 3d 19 d4 a8 bd 26 27 5a bc
       0.06700555 0.08779182 -0.082435794 -0.013314998
000320 80 c4 8c 3d ee f1 e0 bd 1b b7 cf bb 20 b2 a0 bd
       0.06873417 -0.109836444 -0.0063389665 -0.07846475
000330 d4 f2 47 bd 5c 6a 8f 3c 05 8a 76 bd 13 64 98 bd
       -0.048815563 0.01750677 -0.06019022 -0.07440963
000340 64 a1 5b bd 54 3f 11 bd dd 3e 9f bd cc 46 75 bd
       -0.05362071 -0.035460785 -0.07775662 -0.05988197
000350 7f b0 94 bd 82 ba 1c 3d ab 8d 14 3a 02 3e dc 3b
       -0.072602265 0.038263805 0.0005666862 0.006721259
000360 8f a8 c2 b8 5c af 84 bd d3 5f 08 3e 24 e9 b1 3c
       -9.282037e-05 -0.0647876 0.13317804 0.021717615
000370 a2 cf a8 3c d4 5b 77 3c c4 9e ec bb a6 01 88 3d
       0.02060682 0.015097577 -0.007221075 0.066409394
000380 ad b4 2e bd 1e a3 5b 3d 83 da 6c 3b fa 94 b6 3d
       -0.042652775 0.053622358 0.0036140985 0.08915134
000390 7b 3a 7d bd 06 08 a7 3c ee 3f 88 3d 7c b6 f5 3c
       -0.06182335 0.020389568 0.066528186 0.029994242
0003a0 ae 75 07 be 1f 1a 04 3d a3 98 d5 bc a6 6d e5 bc
       -0.13228485 0.032251474 -0.02607376 -0.028006386
0003b0 eb ad 69 bd 10 81 49 bd 38 7a dc 3d 94 c4 11 bd
       -0.057050627 -0.04919535 0.10765499 -0.035587862
0003c0 12 7f 92 bd 18 2f 21 3d f9 5d 83 3c 4c 71 f8 bd
       -0.07153143 0.039351553 0.01603602 -0.12130985
0003d0 1a 30 9c bd ed e6 0c bd 9b e9 45 bc 0c 86 1c bd
       -0.07626362 -0.034399915 -0.012079622 -0.038213775
0003e0 92 5b 9c bc 8d b2 e0 3d 56 4c bf bc 07 3b 5a ba
       -0.019086633 0.10971556 -0.02335183 -0.0008324836
0003f0 31 2f 80 3c 98 63 dc 3d 32 e2 4e 3c 07 4c 35 3d
       0.015647503 0.107611835 0.012627171 0.04426196

grouped_heads.1.mlp.mlp_block.0.bias f4 [2]
000000 e9 c9 8f 3e 0b 58 73 3e
       0.28083733 0.23764054

grouped_heads.1.mlp.mlp_block.2.weight f4 [256, 2]
000000 df a1 a8 be 10 96 af be 6b 47 10 be 0a f9 50 3e
       -0.32935998 -0.34294176 -0.14089744 0.20407501
000010 db e6 b0 3d 49 5c 63 bc 0d 25 83 3e 7e fc 5f 3e
       0.08637782 -0.013876983 0.25614205 0.21873662
000020 d5 e5 a2 3d 43 bc d5 3d d8 f5 16 3e cd 67 85 3e
       0.07953993 0.10436299 0.1474222 0.26055756
000030 86 07 2c 3e 2e bb e9 3c 3d 29 8b 3e 0d cc a8 3e
       0.16799745 0.028531637 0.271799 0.32968178
000040 a0 57 35 3d 35 c2 8a 3e b1 ed 57 3e be 8d a9 3e
       0.04427302 0.27101293 0.21086766 0.33115953
000050 22 07 71 3e 42 02 ce 3c 23 7e 70 3e 10 22 a7 3e
       0.23537877 0.025147561 0.23485617 0.32643175
000060 33 d7 ad 3d fa b1 7e 3e 15 84 6b 3b e2 4d 60 3e
       0.084883116 0.2487258 0.0035936881 0.2190471
000070 d2 ba ae 3e 41 b2 32 3d c9 ee 2c 3d ec b5 67 3e
       0.34126908 0.043627027 0.04221991 0.22627991
000080 89 96 3c 3d db e1 5e 3e 7f ee da 3d 75 cd 16 3d
       0.046042 0.21765845 0.10690021 0.036817033
000090 c8 f1 a7 3e 99 07 65 3d 74 9e 65 3d 39 bd ca 3d
       0.32801652 0.05591545 0.056059316 0.098993726
0000a0 f0 ce 68 3e ce 1f 64 3e 39 26 a0 3e b5 7f ab 3d
       0.2273519 0.22277758 0.31279162 0.083739676
0000b0 84 22 12 3e b5 16 a6 3e 43 0a 8f 3d b0 be dd 3d
       0.14270979 0.324392 0.06984379 0.108273864
0000c0 60 09 ab 3e d1 8f ad 3e 1d 3b ab 3e 2e d3 87 3e
       0.3340559 0.33898786 0.33443537 0.26528305
0000d0 87 67 d0 3d 6f 5f 75 3e 76 48 92 3e b4 a5 e2 3c
       0.10175996 0.23962186 0.28570908 0.027666904
0000e0 a4 fe 5d 3c df a3 8a 3e 6a 6a 8c 3d 4b 02 e7 3c
       0.013549481 0.2707815 0.06856234 0.028199336
0000f0 3d a6 a0 3e 2c 45 82 3e eb b1 9d 3d 8e a8 0c bc
       0.3137683 0.254434 0.07699951 -0.008585108
000100 8b bb 9d 3c 30 60 91 3e e1 e5 a0 3e 49 43 ae 3e
       0.019254467 0.28393698 0.31425384 0.3403571
000110 84 8f 1c 3d db 67 ac 3e 2e 57 ce 3c 4d b0 a8 3e
       0.038222805 0.33672985 0.025188055 0.32947007
000120 4a 61 8b 3e 31 2a 3d 3d 62 54 3f 3d e0 a4 ac 3e
       0.27222663 0.046182815 0.046711333 0.3371954
000130 35 5e b7 3d 13 4c 12 bb 78 92 59 3d ba 4e 0a 3d
       0.089535154 -0.0022323176 0.0531182 0.033766486
000140 36 24 f9 3d 91 7d 64 3e 4c 5f d5 3d 43 0b fb 3d
       0.1216511 0.22313525 0.10418567 0.122580074
000150 e6 90 96 3c f8 dd 05 3e ba ee 91 3e 88 ae 67 3d
       0.01837964 0.13072956 0.28502446 0.05656293
000160 7c df a7 3e b6 b9 96 3e 98 5c 0f 3e 90 7d 66 3e
       0.32787693 0.2943856 0.14000165 0.22508836
000170 ed 79 9c 3e 93 4a 92 3e b5 9f 9a 3e 48 ef a7 3e
       0.30561772 0.2857252 0.30199972 0.32799745
000180 dd df aa 3e 40 02 68 3e 44 8f 64 3e 2c 47 ac 3e
       0.3337392 0.22657108 0.22320276 0.3364805
000190 f9 da fa 3d bc d1 a6 3e 41 91 96 3d d8 35 97 3d
       0.12248797 0.3258189 0.07351924 0.07383317
0001a0 33 27 8e 3e 70 3f a3 3d dc f2 71 3e 26 fa c2 3d
       0.27764282 0.07971084 0.236278 0.09520368
0001b0 f4 aa 8d 3e 4c c1 20 3d a5 46 24 3d a9 cb e5 3d
       0.2766949 0.039246842 0.040106434 0.11220486
0001c0 ff d5 80 3e 00 cb 84 3e 7e 29 9e 3e 3e f8 3c 3d
       0.25163266 0.25936127 0.3089103 0.04613518
0001d0 e9 bc ac 3d e9 46 c1 3c 49 35 e4 3d 75 34 94 3d
       0.08434469 0.023593383 0.11142976 0.07236568
0001e0 b7 56 6b 3d a2 af 5c 3e ff b5 8b 3d 13 27 93 3d
       0.057455745 0.21551374 0.068218224 0.07185187
0001f0 b2 32 f9 3d 27 8c 87 3e ca 2e a5 3e fc f2 5d 3e
       0.121678725 0.26474115 0.3226226 0.21674722
000200 a8 78 73 3d 00 1a 89 3e 73 d4 57 3e 90 31 83 bc
       0.05944124 0.2677765 0.21077137 -0.016014844
000210 58 6b 04 3e 7a 4b 0a 3c cf 9d de 3d 58 70 c2 3d
       0.12931573 0.008440847 0.10869943 0.09494084
000220 09 14 a1 3e 7a ea 73 3e 06 b7 2f 3c 6f 4b 92 3d
       0.31460598 0.23819914 0.0107247885 0.07143294
000230 6b 3b 72 3d bc 19 5f 3e ba f8 62 3e 99 87 82 3e
       0.059138697 0.2178716 0.22165194 0.25494078
000240 01 28 69 3e 72 54 59 3e 6c e1 9d 3e 68 c0 79 3d
       0.22769167 0.2122362 0.30836046 0.06097451
000250 72 7e 96 3e c6 fb 88 3e 72 52 1c 3e 38 3d d0 bc
       0.29393345 0.26754588 0.15265825 -0.025419816
000260 96 e1 c7 3d c0 ce 9e 3e 3a 10 02 3e f1 21 a1 3c
       0.09759824 0.31017113 0.12701502 0.019669505
000270 4b bb eb 3c c6 31 ac 3c e4 72 17 3e be ad 96 3e
       0.028775832 0.021019828 0.14789921 0.2942943
000280 c6 e1 01 3d c8 cf 95 3e ac fa a5 3e dd 10 a1 3d
       0.031709455 0.29260087 0.3241781 0.078645445
000290 1c 3e 08 3d 41 7e 02 3e 1b 78 b9 3d 8d d6 8e 3e
       0.033262357 0.12743475 0.090561114 0.27898064
0002a0 28 cf a5 3e d5 67 9c 3e 10 07 b1 3e 44 e6 75 3e
       0.3238461 0.30547968 0.345757 0.2401362
0002b0 80 17 89 3e 49 83 8c 3e c7 54 99 3e 1d d5 62 3e
       0.26775742 0.27443913 0.29947492 0.22151609
0002c0 eb 3f 9b 3e 84 e4 d2 bc 2e ec 75 3e c0 45 9a 3e
       0.30322203 -0.02574373 0.24015877 0.3013134
0002d0 17 c3 5e 3e ac e1 97 3e bc d3 6b 3e fc af 8a 3e
       0.21754108 0.2966436 0.23029989 0.2708739
0002e0 11 62 91 3e 4e 5d 1a 3d 57 ed cd 3d 93 43 91 3e
       0.2839513 0.03768664 0.100550346 0.28371868
0002f0 e2 de 75 3e 4b 00 90 3e be 23 6a 3c a6 74 00 3e
       0.24010804 0.28125224 0.014290748 0.12544498
000300 00 0d ab 3e 1f 2e b9 3d a8 14 73 3e 5e 89 bc bc
       0.33408356 0.09042 0.23738348 -0.02301472
000310 77 63 65 3e a1 ae b1 3e 55 a7 a4 3e 95 cd 97 3d
       0.22401224 0.34703544 0.32158914 0.074122585
000320 5a 10 a2 3e ce 52 7f 3d 33 5b f8 3d 36 3b a4 3e
       0.316531 0.062334828 0.1212677 0.32076424
000330 d6 aa fe 3c dc 44 9c 3e a5 ac 89 3d cf e6 44 3d
       0.03108732 0.30521286 0.067223825 0.04807168
000340 97 5a a6 3e 11 8e a3 3e 84 e1 a1 3e 4d 44 c1 3c
       0.3249099 0.31944326 0.31617367 0.023592139
000350 90 b5 05 3e bc f7 e7 3d 0b c9 5a 3d 31 fc 83 3c
       0.13057542 0.113265485 0.053414386 0.016111465
000360 2d 4e 88 3e b6 37 06 3e 7c a6 ae 3a b3 c6 0f 3e
       0.26622143 0.1310719 0.0013324763 0.14040641
000370 f9 7e 96 3d 72 95 fb 3d cb 47 21 3e cd 98 8e 3e
       0.07348437 0.12284364 0.15750043 0.27850953
000380 4a 1b 3b 3c 8e b9 6f 3e 56 46 34 bb ee b6 67 3e
       0.01142008 0.23410627 -0.0027507744 0.22628376
000390 95 7d a2 3e f6 d6 9b 3e 29 56 73 3d 4d 82 64 3e
       0.31736436 0.3043744 0.05940834 0.22315331
0003a0 2f e3 b0 3e 35 48 f0 bb 7e 25 c8 3d e3 ee a5 3e
       0.34548327 -0.0073328265 0.09772776 0.3240882
0003b0 8b 32 23 3d 04 35 42 3d 16 8b bd 3c 41 2e 7a 3e
       0.039843123 0.04741384 0.02313761 0.24431707
0003c0 5b b3 7d 3e 38 19 a2 3e 1f 8e 69 3e b6 1c c2 3d
       0.2477545 0.31659865 0.22808121 0.094781324
0003d0 6a 23 d4 3d e3 06 66 3e 4d 17 1a 3c c8 ae 20 3e
       0.10358317 0.22463565 0.009404969 0.15691674
0003e0 27 58 ef 3d f2 58 08 3e 3f 61 6b 3e d3 66 ad 3d
       0.116867356 0.1331518 0.22986315 0.08466878
0003f0 e6 e7 ee 3d 8e d4 d5 3b 3e 73 ed 3c 0f 39 85 3e
       0.11665325 0.0065255826 0.028985616 0.26020095

grouped_heads.1.mlp.mlp_block.2.bias f4 [256]
000000 cb f7 18 be fa 94 0f be 14 fe 47 3e c7 85 45 3e
       -0.14938276 -0.14021674 0.19530517 0.19289313
000010 01 ed 51 3e 24 26 38 3e f0 d6 4b 3e 75 77 34 3e
       0.20500566 0.179833 0.19906211 0.17623694
000020 e5 71 49 3e ba ec 3b 3e 2e f6 3f 3e b3 ac 35 3e
       0.19672354 0.18352023 0.18746254 0.17741661
000030 d1 e6 3a 3e ef 35 41 3e fa 50 42 3e 03 c1 3a 3e
       0.18252112 0.1886823 0.18976203 0.1823769
000040 a1 a2 43 3e 17 9d 4e 3e 59 95 44 3e 0c 04 48 3e
       0.19105007 0.20177113 0.19197597 0.19532794
000050 c3 be 3d 3e 8d cc 3b 3e 2e 49 3b 3e ad b1 4d 3e
       0.18529801 0.18339749 0.18289635 0.20087309
000060 5d 0e 40 3e 23 d2 33 3e fe 88 42 3e 1c a6 3b 3e
       0.18755479 0.1756063 0.18997571 0.18325084
000070 b8 77 3e 3e 64 90 53 3e 09 e5 3c 3e df 5f 4d 3e
       0.18600357 0.2066055 0.18446745 0.20056103
000080 b8 f7 48 3e 6a 91 3c 3e 20 54 3e 3e f9 a0 44 3e
       0.19625747 0.18414846 0.18586779 0.19202031
000090 4d c7 47 3e 97 12 46 3e 4a 6a 4b 3e 4f 67 58 3e
       0.19509621 0.19343029 0.19864765 0.21133159
0000a0 b1 97 36 3e c1 0a 42 3e 3b 1d 4e 3e ca 8e 51 3e
       0.17831303 0.18949415 0.20128338 0.20464626
0000b0 86 0c 3c 3e fb 55 3d 3e 5f a6 3a 3e 48 b6 32 3e
       0.18364152 0.1848983 0.18227528 0.17452347
0000c0 b2 90 37 3e 88 2e 3e 3e 6c 1e 3a 3e 47 01 57 3e
       0.1792629 0.18572438 0.18175668 0.20996581
0000d0 cc 31 38 3e b0 e8 43 3e 70 df 46 3e e6 8d 4d 3e
       0.17987746 0.19131732 0.19421172 0.20073661
0000e0 b2 d6 39 3e 71 ac 3d 3e 76 8d 44 3e 1e 98 4f 3e
       0.18148306 0.18522812 0.19194588 0.20272872
0000f0 3b 71 40 3e b6 a9 4c 3e aa 94 3e 3e 58 6c 3c 3e
       0.18793194 0.19986615 0.18611398 0.18400705
000100 4f 4c 47 3e 2e 98 47 3e f1 58 44 3e 5e b8 49 3e
       0.19462703 0.19491646 0.19174553 0.19699237
000110 42 ad 3a 3e cf 7f 48 3e be 87 4a 3e 0f 3d 42 3e
       0.18230155 0.19580005 0.19778344 0.18968605
000120 dd b0 3c 3e 6d 97 3d 3e 63 46 43 3e df 1e 47 3e
       0.18426843 0.18514796 0.19069819 0.1944537
000130 e2 19 46 3e 24 a3 40 3e e2 0e 4f 3e c1 ea 38 3e
       0.19345811 0.18812233 0.20220521 0.18058302
000140 37 1c 4a 3e 1c e3 41 3e d0 63 4a 3e 90 3b 4f 3e
       0.19737326 0.18934292 0.19764638 0.20237565
000150 c5 7c 43 3e c4 fc 40 3e 6f eb 38 3e f4 54 3c 3e
       0.19090565 0.18846422 0.18058561 0.18391782
000160 29 76 45 3e a8 08 3d 3e 91 c6 42 3e b5 8d 3f 3e
       0.19283356 0.18460333 0.1902106 0.187064
000170 76 63 47 3e 07 f3 3b 3e 28 e7 35 3e 34 4f 46 3e
       0.19471535 0.18354426 0.1776396 0.19366151
000180 bd 26 43 3e f2 b7 44 3e 3d 95 45 3e b3 52 3e 3e
       0.19057746 0.19210795 0.19295211 0.18586235
000190 05 5e 39 3e fc 8f 37 3e 2c 3d 46 3e 4b bf 4a 3e
       0.18102272 0.1792602 0.19359273 0.19799535
0001a0 4a 7b 39 3e 25 dd 4b 3e 8c fb 4d 3e 1d dd 4d 3e
       0.18113437 0.19908579 0.20115489 0.2010388
0001b0 5c de 47 3e 00 69 48 3e e1 8d 44 3e 1e 74 41 3e
       0.19518417 0.19571304 0.19194748 0.18891951
0001c0 1f d7 42 3e ab dd 4c 3e 8e 15 3e 3e 28 f1 42 3e
       0.19027375 0.20006435 0.1856291 0.19037306
0001d0 14 31 47 3e a8 5c 3f 3e a1 c4 40 3e b0 84 3c 3e
       0.19452316 0.1868769 0.18825008 0.18409991
0001e0 ad b2 42 3e b8 02 47 3e 2b c3 3b 3e 34 bd 4a 3e
       0.19013472 0.19434631 0.1833617 0.19798738
0001f0 9b 68 47 3e ae dc 40 3e e9 56 47 3e a5 aa 4b 3e
       0.19473498 0.18834183 0.19466747 0.19889314
000200 48 f7 36 3e 9e 39 39 3e fa dd 38 3e 0e 16 47 3e
       0.17867768 0.18088385 0.18053427 0.19442007
000210 48 fa 48 3e 70 40 41 3e e6 45 3e 3e b9 71 47 3e
       0.19626725 0.18872237 0.18581352 0.19476976
000220 d7 be 3d 3e c5 c3 45 3e 5a 87 42 3e 51 65 41 3e
       0.18529831 0.19312961 0.18996945 0.18886305
000230 24 d2 4d 3e d3 da 41 3e 96 8f 42 3e f5 ca 44 3e
       0.20099694 0.18931131 0.19000086 0.19218047
000240 fa a9 46 3e 71 a4 4a 3e bc 5b 45 3e 66 ae 4d 3e
       0.19400778 0.19789292 0.19273275 0.20086059
000250 ad 7a 4b 3e 9a b7 3f 3e 8b 15 41 3e 7b 0a 3d 3e
       0.19871016 0.18722382 0.18855874 0.18461029
000260 d8 f3 3e 3e 58 28 3f 3e 52 be 42 3e f5 8f 36 3e
       0.18647707 0.18667734 0.19017914 0.17828353
000270 f5 ed 4b 3e 02 9f 40 3e f2 4a 41 3e 78 12 46 3e
       0.19914992 0.18810657 0.18876246 0.19342983
000280 23 a6 4d 3e 68 dd 3c 3e 85 74 47 3e 4d ea 4f 3e
       0.20082907 0.18443835 0.19478042 0.20304222
000290 2d cf 43 3e b3 eb 4a 3e e3 0a 45 3e bf d5 3f 3e
       0.19122 0.19816475 0.19242434 0.18733881
0002a0 a5 61 41 3e 01 1a 3d 3e 6e e7 40 3e 0a 50 45 3e
       0.18884905 0.18466951 0.18838283 0.19268814
0002b0 79 a7 45 3e d8 2c 3e 3e fd c4 42 3e ac ac 3a 3e
       0.19302167 0.18571794 0.19020458 0.18229932
0002c0 67 47 37 3e 8b d0 4a 3e fb e8 3f 3e f6 33 44 3e
       0.17898332 0.19806115 0.18741219 0.19160447
0002d0 18 e1 3f 3e 89 7c 4a 3e c9 a8 3a 3e 0e 0c 3f 3e
       0.1873821 0.19774069 0.18228449 0.18656942
0002e0 57 5d 38 3e a6 89 45 3e b6 ae 4b 3e 41 40 48 3e
       0.18004356 0.1929079 0.19890866 0.19555761
0002f0 0c ce 47 3e d1 71 4c 3e 2f 44 4c 3e 04 93 38 3e
       0.19512194 0.19965293 0.19947885 0.18024832
000300 c8 62 3c 3e 6f 1b 42 3e ed e1 3a 3e c8 d3 48 3e
       0.18397057 0.18955778 0.18250246 0.19612038
000310 e6 c4 44 3e 02 23 49 3e 4f 13 46 3e 60 04 45 3e
       0.19215736 0.1964226 0.19343303 0.1923995
000320 d4 88 3f 3e a0 6e 41 3e 26 26 46 3e 90 a1 44 3e
       0.1870454 0.18889856 0.1935049 0.19202256
000330 6b ee 41 3e e4 d4 4c 3e e1 03 43 3e a9 a8 40 3e
       0.18938605 0.20003086 0.19044448 0.18814339
000340 68 3a 39 3e df ef 37 3e 86 fa 3a 3e 3e bf 33 3e
       0.18088686 0.17962597 0.1825963 0.17553422
000350 2d e4 2f 3e df f3 45 3e d2 16 40 3e b8 21 37 3e
       0.17176886 0.1933131 0.18758705 0.17883956
000360 6b d5 4b 3e 86 13 4c 3e 05 53 51 3e 79 30 42 3e
       0.19905631 0.19929323 0.20441826 0.18963803
000370 70 ce 46 3e b3 b7 4f 3e 98 f9 51 3e 83 fb 44 3e
       0.19414687 0.2028492 0.20505369 0.19236569
000380 5c 3e 45 3e 64 86 48 3e 47 8d 3a 3e e5 c7 42 3e
       0.1926207 0.19582516 0.18217956 0.19021566
000390 48 dd 4e 3e d4 ff 41 3e b7 74 4f 3e 1c ce 47 3e
       0.202016 0.18945247 0.20259367 0.19512218
0003a0 17 39 36 3e 07 b6 4c 3e 9e d6 41 3e 7c 83 49 3e
       0.17795216 0.19991313 0.18929526 0.19679064
0003b0 9d 16 47 3e 49 e5 3c 3e e4 32 43 3e 08 ad 43 3e
       0.1944222 0.1844684 0.19062382 0.19108975
0003c0 86 c3 4b 3e f8 1d 49 3e f1 4f 48 3e 80 81 4c 3e
       0.19898805 0.19640338 0.19561745 0.19971275
0003d0 9c cd 36 3e 47 42 3b 3e 78 f8 3a 3e 30 c4 3e 3e
       0.17851871 0.18287002 0.18258846 0.18629527
0003e0 f9 b8 4b 3e 38 5c 41 3e 5e 69 51 3e 1d 2f 42 3e
       0.1989478 0.18882835 0.2045035 0.18963285
0003f0 d4 27 46 3e 6b af 3b 3e 44 21 38 3e a6 d1 3f 3e
       0.1935113 0.18328635 0.1798144 0.18732318

grouped_heads.2.mlp.mlp_block.0.weight f4 [2, 1792]
000000 0f cb 89 3c 50 96 43 3d c1 8c 3a 3c 9b 7b 9b bc
       0.016820459 0.04775077 0.011386097 -0.018979838
000010 21 cc 05 bc a8 4f 92 3c f2 cd 96 bb 91 8d 92 3d
       -0.008166344 0.017860249 -0.0046021873 0.07155908
000020 93 f5 9e bc 01 70 48 bd 89 20 32 bc b2 b2 1b 3d
       -0.019404208 -0.04893494 -0.010872015 0.038012214
000030 3a b3 e8 bc 22 7e 5c bd e1 29 41 3a 10 7e 0b 3d
       -0.028405774 -0.053831227 0.0007368606 0.03405577
000040 08 1c 18 3c 80 ba 0e bd 5e da d5 bc 3c dd 25 3d
       0.009284027 -0.03484583 -0.026105102 0.04049419
000050 20 de ad bc 7d b5 83 bd d8 ff 24 bd 42 08 38 3d
       -0.021224082 -0.064311005 -0.040283054 0.04492975
000060 ad d8 31 3d ab ba a9 39 66 91 fa bb ed 68 e1 bb
       0.04341953 0.0003237327 -0.0076467274 -0.006878963
000070 70 00 56 3c bf ed 0e bd b8 5c 2a 3d 33 83 0e 3d
       0.013061628 -0.0348947 0.04159233 0.03479309
000080 6e 5c 0e bd a2 5c 00 3d 93 af c2 bc e0 14 a8 3c
       -0.034756117 0.03133834 -0.023765361 0.020517766
000090 04 8e b7 bc 18 c6 34 bd dc 47 b4 bc fa b5 96 bd
       -0.022406586 -0.04413423 -0.022006921 -0.07358928
0000a0 2e 3b b5 3d ea c7 15 3d c0 b3 02 3e 0c 17 47 bb
       0.08849178 0.036567606 0.12763882 -0.0030378727
0000b0 ea f4 1f bc 53 d7 03 3c 70 e8 a4 bd 00 2d 7d 3d
       -0.009762982 0.008046943 -0.080521464 0.061810493
0000c0 23 da 6f 3c 2e 06 96 3c 83 4c b2 bc e6 1c 8b bc
       0.01463941 0.018313494 -0.021765 -0.016981553
0000d0 13 e6 1d bc 13 1c fb bd 18 f4 40 3d 05 0b a2 bd
       -0.0096373735 -0.12261214 0.047107786 -0.07912258
0000e0 4b 66 ef 3b 86 3e 79 37 d7 a3 ac 3d 83 cb ff bb
       0.0073058954 1.4856114e-05 0.084296875 -0.007806243
0000f0 3c a8 bf bb f2 25 ed bb 25 9a f4 3b 9c 2f 23 3c
       -0.0058489125 -0.0072371894 0.0074646645 0.009960081
000100 48 81 17 bd e2 4c e6 bb 7c 9f a9 3c 77 b3 f1 bc
       -0.036988527 -0.007028208 0.02070593 -0.02950452
000110 16 d6 45 bd 04 90 8e 3c 2b 41 c3 bc 3d 1d a0 3b
       -0.04829987 0.017402656 -0.023834785 0.004886298
000120 e3 27 d6 bc 4b 52 47 3d 7b 78 53 bd 85 d4 3f bb
       -0.026142066 0.048662465 -0.05162857 -0.0029270959
000130 86 64 83 3c 1f d4 92 3d 38 b2 42 3c 36 e8 c9 3c
       0.016039144 0.07169365 0.011883311 0.02464686
000140 ed cd 12 bd b6 e5 88 bd 06 ca 4a bd 1a fd b0 3d
       -0.035840917 -0.06684439 -0.04950907 0.08642025
000150 c5 63 1f 3d 28 9c 4d 3c e2 95 80 3d 03 4e 12 bd
       0.038913507 0.012549438 0.06278588 -0.03571893
000160 8d 4b 0a bd 2b bd e4 3b 8a d1 90 3d 5b 48 54 3c
       -0.033763457 0.0069805584 0.070712164 0.012956704
000170 3f d6 a3 bb 5a 44 8a 3d 8a b2 a2 bd 57 c8 3b bd
       -0.0049999054 0.06751318 -0.0794421 -0.045845356
000180 82 c9 e7 3d 39 70 d7 3b a1 74 97 3d 7b 4f 36 3d
       0.113177314 0.0065746573 0.07395292 0.044509392
000190 16 f3 86 bb 16 68 00 bd f7 31 ab 3d 1d ce cb 3c
       -0.0041183336 -0.031349264 0.083591394 0.024878556
0001a0 36 6d f8 bc 14 8a d2 bc 70 5e 15 bd 2e ec e8 3b
       -0.030325513 -0.025700606 -0.036467016 0.007108233
0001b0 16 68 ba 3c 19 b2 15 bd 57 7f fe bc b2 1b c9 3c
       0.02275471 -0.0365468 -0.03106658 0.024549339
0001c0 dd fd 5a 3b 5c 4a a9 3c 0d 33 7c bb 01 92 11 bd
       0.0033415474 0.02066534 -0.0038482577 -0.03553963
0001d0 48 e5 e5 bc ae da ed bc 8c 8d ba 3d 98 02 aa bd
       -0.028063431 -0.029034939 0.09109029 -0.08301276
0001e0 f3 d5 4d 3d 65 58 98 bb 1b a0 a6 bd 10 2f 04 bd
       0.050252866 -0.0046492093 -0.081360064 -0.032271445
0001f0 58 38 49 bd 3a a8 d9 bc 79 48 12 3d e5 76 19 3c
       -0.049126 -0.026569474 0.035713647 0.009366726
000200 a7 b0 d8 ba 72 89 0f 3d 06 11 d4 3b 67 3b 5a bd
       -0.0016532139 0.035043187 0.006471756 -0.053279307
000210 34 ee 97 bd 91 23 83 3c 49 94 76 3c e1 d8 b3 bc
       -0.074184805 0.01600817 0.015050002 -0.021954002
000220 60 3d e4 bc 40 10 87 bd 4e 6a 9d 3b 39 f2 42 3b
       -0.027861297 -0.06594896 0.0048039323 0.0029746427
000230 f9 9b 1d 3d d2 92 2d 3c 49 ae 3c bd 17 78 00 3d
       0.038478825 0.010594087 -0.04606465 0.031364527
000240 34 e4 8a bd cd 2c 69 3c 99 5e 88 3c 2d c0 1a bd
       -0.067818075 0.014231873 0.01664667 -0.03778093
000250 c3 2b 82 bc 36 c6 62 3d 87 76 b7 3c 04 7f 3b 3d
       -0.015890008 0.05536481 0.022395385 0.04577543
000260 a4 95 75 3c 1f 10 b3 bb 32 be 8e bd a8 96 8f 3c
       0.01498929 -0.0054645683 -0.069698706 0.017527893
000270 92 c4 2e 3c fa b7 86 bd 76 38 99 3c b7 94 e8 3b
       0.010666983 -0.065780595 0.01870368 0.0070978063
000280 8a dc 32 bd 9c 7b dd b9 3b 6f e7 bb 12 0b 10 3c
       -0.043667354 -0.000422445 -0.0070628203 0.008791702
000290 6e 52 16 3d 7c 62 eb 3c 52 21 44 3d cd df 3a 3d
       0.036699705 0.028733484 0.04788334 0.04562359
0002a0 ac 29 90 bd 1c 36 d2 bc c6 4a b9 ba 9b bb 20 3c
       -0.07039198 -0.025660567 -0.0014136664 0.009810354
0002b0 10 2a 52 bd 61 6a 2a 3d dd b0 1b bc 3e 26 92 3b
       -0.051309645 0.041605357 -0.009502617 0.004460125
0002c0 5b f6 50 3d 8a 5f d5 bc 9c 88 50 3c b3 55 d8 bc
       0.051016193 -0.026046533 0.012727883 -0.026408052
0002d0 d0 b6 ac bd c0 2e 75 3c 79 cf 73 3d 52 b9 42 3b
       -0.08433306 0.014964759 0.059524033 0.002971251
0002e0 29 d4 1c bc 6a ed 16 bc 2d bb 86 3d bb a6 92 bb
       -0.009572067 -0.009211877 0.0657867 -0.004475442
0002f0 98 18 74 bc 63 68 45 bd 69 db b1 3c 78 69 a0 bb
       -0.014898442 -0.048195254 0.021711068 -0.0048953854
000300 bb 83 0c bd 89 c1 09 3d 63 b1 af 3c 72 4e 84 3d
       -0.034305315 0.033631835 0.02144689 0.06460275
000310 56 a6 4f 3d 10 7b 30 bd 4e c4 f3 bb 8d 0d 2c bd
       0.05069574 -0.04308611 -0.007439173 -0.04200511
000320 da e5 a1 3d 32 54 b3 3b 15 4c d9 3d 2d c8 1a bd
       0.07905169 0.0054726833 0.106102146 -0.03778856
000330 66 52 63 bd 06 ed 1e 3d e2 85 06 3c 43 d2 ea 3c
       -0.055498503 0.038800262 0.008210631 0.028664714
000340 d5 b7 55 3d 57 48 0e 3c fb 94 67 3d a8 9b b8 bc
       0.05217727 0.008684239 0.056538563 -0.02253516
000350 3a 27 8f 3b d4 ac 87 37 ee 13 34 3d cb 86 10 bc
       0.00436869 1.6173733e-05 0.04396432 -0.0088212
000360 56 df f5 3c 2d 2b 98 bd d5 48 68 bd 8d ff 9d bd
       0.030013721 -0.0743011 -0.056710083 -0.07714758
000370 6b 93 b6 3d 16 64 fc 3b 25 d2 32 3c a2 35 04 3d
       0.089148365 0.007702361 0.01091436 0.03227771
000380 04 7f c3 bc b7 f4 96 3c 9c 9b 3c bd d8 cb 68 3c
       -0.023864277 0.018427236 -0.04604684 0.014208756
000390 6c 38 b7 3c 2e c2 ea bc 66 78 51 3d 56 3d 73 bb
       0.022365771 -0.028657045 0.05114021 -0.0037115416
0003a0 61 84 09 3d 38 4b c1 3c 91 36 c8 3c 88 fc 5b 3d
       0.033573512 0.023595437 0.024440082 0.05370763
0003b0 e3 f8 71 bd 3d 2c 56 3d 83 6d 2d bc 23 3a c2 ba
       -0.059075247 0.052288283 -0.010585192 -0.0014818351
0003c0 0a 25 a7 bd 0b 7f 10 bd 51 82 25 3c 3c 2a a6 3c
       -0.081613615 -0.035277408 0.010101871 0.02028381
0003d0 4a c4 13 3d 3f ba 7c 3c cc 9a 24 3d 90 f7 57 3c
       0.036075868 0.015425264 0.04018669 0.013181582
0003e0 f9 8b a7 bc c4 11 50 bc 21 1e 3d 3d de 5d e9 3c
       -0.020452486 -0.012699548 0.04617131 0.028487142
0003f0 7f 4a 30 3b b2 ad 77 bd c4 3c 4f bd 7c fb 27 bc
       0.0026899872 -0.060468383 -0.05059506 -0.01025283

grouped_heads.2.mlp.mlp_block.0.bias f4 [2]
000000 96 4b 84 3e 67 86 46 3e
       0.25838917 0.19387208
